Project/digits_classifier/model/digits_classifier.pth (torch_old, 623765 bytes, 8 tensors)

conv1.weight f4 [32, 1, 5, 5]
00000000: e0b9 d2ba fb44 5f3e 1109 88bd 409d 853e
00000010: 4876 3fbd f6e4 a03e 85ec 183e 4fbd 053d
00000020: 4860 6ebe b0d9 683e e25b fb3d bf68 63bd
00000030: 9b10 9cbd d2e7 c2bd 724d 493d fb01 903e
00000040: 85f3 b7bc 92f8 3fbd d556 7abe b874 173d
00000050: b0bd 8a3d 9066 f93d 2e69 4b3e 527f dabd
00000060: 71fb 80be ef75 b1bc 7c59 03bf 6826 dfbe
00000070: 76be 543e 61d2 da3e e43a 193e 9d12 1fbf
00000080: 4096 0abf 3525 893e 6d5f eb3e 0878 1e3d
00000090: f260 81be 69e8 a5bd b632 0f3e 481f c73e
000000a0: 6a18 87be 31dc 6abb 16d9 ac3d 841f 3b3e
000000b0: bc8c 13bc a48c 33be ceb2 0cbc e525 a23d
000000c0: fd73 913e 4612 0b3e d914 04be 9a7e 3ebe
000000d0: dccf 2cbe 188d 493e e660 ea3d 8e73 a43d
000000e0: 9286 ac3d 4db3 873d 5ac2 e23d 2edd 2a3e
000000f0: a016 0cbe fc29 443e d4db d13d 04b8 d73e
00000100: d103 bc3d 8718 373a 11d8 913e 2fea 643e
00000110: 86a6 3fbe 53b6 a6be b99a 423d 82de 603e
00000120: c3f2 65be 18f2 d8be 6f61 e9be 660b 793e
00000130: 13ed 5e3e 78ed 6cbe e7dd b7be 8707 47be
00000140: b6f4 b03e 4bc3 a13e ad35 9cbe dd84 47be
00000150: 932f 99be ccd1 0e3e 4470 de3e 6558 563e
00000160: 2093 57bc 069b 9ebe 272a 093e 034b 663e
00000170: 8010 d53e 6653 433e d740 383e 7248 5fbe
00000180: 8a37 033c 0086 433e 7f31 103e 3207 e93d
00000190: aacc 7e3e e1f5 a53d f48e 893e c190 18bc
000001a0: 097d a0bd a825 de3d db3b 6b3e cf6c 7e3e
000001b0: 1c49 553e 0be3 bebd 1679 04bd 042c f73d
000001c0: 715b 4a3e a44b 793c 42bb 683e 0014 41bb
000001d0: 4e81 403e e175 733e f8ba 303e 480b 93bd
000001e0: 92ea 263d 6b04 e53d 5528 6f3e 31fd 95bc
000001f0: 5bd1 8cbc 5da6 153d 6366 a73b e1c6 acbc
00000200: 2591 793e 40fe 5dbc e7d6 263e 35bd 343e
00000210: 072d 443e a382 833e ef4a 543e 5734 6e3e
00000220: 509e e33e 00f3 df3e 64d0 c53d 77f9 be3e
00000230: f738 c43d 8c70 30be 576d a3be a44f 093d
00000240: 7d0e a2be e0d4 de3c a159 51be 56c6 b0be
00000250: 10bf c3be c1c4 83be 9066 48be 0d54 1bbe
00000260: e999 d33e 2f7d 4c3e 5548 133e 32ea 82be
00000270: 3f47 3cbe 1555 3e3e c2a3 5b3e c8af ab3e
00000280: 1b2e fbbe 6c8f 9a3d d30d d23b 15b9 663e
00000290: 4777 193e f65b 28bf e542 e2be 07d0 533d
000002a0: 4d8a 503e ea8d a33d c975 2bbe cb90 36bf
000002b0: 85f9 7cbf b555 2abf 1bc9 88be 9ca9 873d
000002c0: b71e d83d 5227 83be ffc3 bfbe 1638 d63b
000002d0: fd29 70bb 87c7 8f3e b429 3bbd a379 64be
000002e0: 9fd2 e7bd f6df 413e 53c2 ec3d 831f ba3e
000002f0: 4931 923e 364c a7bd ba8b cc3d 5891 ecbd
00000300: 64a5 163b 2aba 0c3d 79fa 5fbd 51be 9a3c
00000310: 3d48 38be 9feb 23be 867e 803e ac9f 0e3e
00000320: af92 e13d 849e 963e 1ebf a4bd e8f7 b7be
00000330: cd64 d7be 6f90 233e 86b3 2a3e a238 ab3e
00000340: ca75 9bbe 392a 51bf 5f1e b63e 1e64 eb3d
00000350: aec4 423e 0669 aabe 1c77 44bf a629 e53d
00000360: a79f a53e 392b 443e 14ba c1be df38 31bf
00000370: 0197 843e 84eb 6c3e 7fa3 18bd e591 e6be
00000380: f9b6 f1be b565 b33e e988 963e 3944 513e
00000390: 3da0 6abe 2e2e 01bf 9f5b 833c bd2b c3be
000003a0: fb00 67bf 5198 5abf c8a5 c5be d8e2 2fbf
000003b0: 74cc 5bbf bf0e 11bf ce97 cabd cdab cd3c
000003c0: f344 03bf 8ace 0cbd 02b1 9b3e 9fa5 6f3e
000003d0: 3872 d93e 48e5 b0bd b8a9 03bd 9e79 303e
000003e0: a80b 683d 7c48 cb3e d5e7 313e 944b d1bc
000003f0: 075d d03d e790 b23d 2cea 673e bb81 423e
-0.0016077124 0.21803658 -0.06642354 0.26096535 -0.04674366 0.31424683 0.14933975 0.032651242
-0.23278916 0.22739291 0.12273385 -0.055519816 -0.07620355 -0.095168725 0.049146123 0.2812651
-0.022454986 -0.046867914 -0.24447186 0.036976546 0.06774461 0.12177765 0.19864342 -0.10668816
-0.25191835 -0.02166268 -0.5130842 -0.4358399 0.2077578 0.4273863 0.14963871 -0.62137777
-0.54135513 0.267862 0.45971242 0.03868869 -0.25269276 -0.08100969 0.13984188 0.38891053
-0.26385814 -0.003583681 0.08439843 0.18273741 -0.009005722 -0.17534119 -0.008587552 0.07917384
0.28408805 0.1358119 -0.12898578 -0.18602982 -0.16876167 0.19682729 0.11444263 0.08029853
0.08424105 0.06625996 0.11072226 0.16685936 -0.13680506 0.19156641 0.10247007 0.4213258
0.091804154 0.0006984551 0.28485158 0.22354959 -0.18715867 -0.32560977 0.047510836 0.2195988
-0.22455887 -0.42372203 -0.45582148 0.24320754 0.21770124 -0.23137462 -0.35911486 -0.19436465
0.345617 0.3159431 -0.305097 -0.19484277 -0.2991911 0.13947219 0.43445027 0.20932157
-0.013157636 -0.30977648 0.13394986 0.22489552 0.4161415 0.19074783 0.17993484 -0.2180498
0.008008847 0.19094086 0.14081381 0.113783255 0.2488276 0.08103538 0.26866877 -0.009311856
-0.078363486 0.10847026 0.22972052 0.24846195 0.2082867 -0.09320649 -0.03234204 0.12068942
0.19761445 0.015215788 0.22727683 -0.0029461384 0.18799326 0.23775436 0.17258823 -0.07179886
0.040751047 0.11182483 0.23355229 -0.018309208 -0.017189672 0.03653561 0.005108641 -0.021090927
0.24371774 -0.013549387 0.16292916 0.17650302 0.19157802 0.25685605 0.2073171 0.23262154
0.4445672 0.43740082 0.09658888 0.37299702 0.09581178 -0.17230433 -0.31919357 0.033523217
-0.3165168 0.027201116 -0.20444347 -0.34526318 -0.38231707 -0.2573605 -0.19570374 -0.15168782
0.41328362 0.19969629 0.14383061 -0.25569302 -0.18386553 0.18587144 0.21449187 0.33532548
-0.49058613 0.07546887 0.0064103394 0.2253154 0.14986907 -0.6576532 -0.4419166 0.051712062
0.20365258 0.07986052 -0.1674415 -0.71314687 -0.98818237 -0.6653703 -0.2671593 0.06624147
0.105527334 -0.25615937 -0.3745422 0.0065374477 -0.003664612 0.28081915 -0.045694068 -0.22312026
-0.1131947 0.1893309 0.11560502 0.36352167 0.28553227 -0.08168833 0.09987588 -0.115511596
0.0022986764 0.034357227 -0.05468223 0.018889578 -0.17996307 -0.16007851 0.2509653 0.13928097
0.11014306 0.29417813 -0.08044265 -0.35931325 -0.42069092 0.15973066 0.16670045 0.33441645
-0.30363303 -0.8170505 0.35570046 0.11493705 0.1902034 -0.33283252 -0.76744246 0.111895844
0.32348368 0.19157113 -0.3783728 -0.69227403 0.25896457 0.23136717 -0.037265297 -0.45033184
-0.4720991 0.35038534 0.2940133 0.20436181 -0.22912689 -0.5046109 0.0160349 -0.38119307
-0.9023587 -0.85388666 -0.38603044 -0.6870551 -0.85858846 -0.56663126 -0.09892236 0.025106335
-0.51277083 -0.03437666 0.30408484 0.23403023 0.42469954 -0.08637482 -0.03214428 0.17233893
0.05665174 0.3970374 0.17373593 -0.025548734 0.101739936 0.08719044 0.22647923 0.18994801

conv1.bias f4 [32]
00000000: 7258 2fbd e023 87bb 8dd5 d7bb ebc3 76bd
00000010: 72e6 9c3d d766 1cbe df15 843d a6ac 80bd
00000020: 392a dd3d 9c1a 6d3e a4fa dd3d a8b9 6c3a
00000030: f0bc f9bd 0095 04be 9575 00bc 0da6 383d
00000040: 7249 223e 10b9 f2bd 3614 7f3c 7ca8 07be
00000050: 79d8 4dbd 985a 813d 14b7 07be 4b34 7fbd
00000060: 969d cfbd 54bf 13bd 2964 9a3d 0961 1abd
00000070: b2e5 cbbc 4ade aabc 88c7 24be 23ca 1e3e
-0.042808957 -0.0041241497 -0.0065867365 -0.060245436 0.076611415 -0.15273605 0.06449484 -0.0628293
0.10799069 0.23154682 0.108388215 0.00090303505 -0.1219424 -0.12947464 -0.007840534 0.045080233
0.1584833 -0.11851704 0.0155687835 -0.13247865 -0.050255273 0.063161075 -0.13253433 -0.06230573
-0.10137479 -0.036071137 0.07538635 -0.037690196 -0.0248898 -0.020857949 -0.1609174 0.15506797

conv2.weight f4 [64, 32, 5, 5]
00000000: 1151 033d f7d0 9abc 3505 5fbb d294 113c
00000010: 20b4 8f3d 9455 243d c30e dd3b 462d b03c
00000020: 617c 86bc de80 203d 4bee 123d 5807 943c
00000030: 0f51 f0bc b73d 0bbe f939 8bbd 7617 1abd
00000040: cfd4 ec3c 1bb8 98bd 5c01 c5bd 4044 e53c
00000050: ff4d 8cbd 4bee c5bc adaf a1bd aaf3 8dbc
00000060: 658d 123d 7aa4 25bd 5dee a2bc 6714 feba
00000070: 7693 2d3d 23f9 f5bd 9282 c0ba 7a68 94bd
00000080: b88e 52bc 1ddc 0a3d 8d61 e9bd be4f 093d
00000090: a226 cebd 6bd9 1bbd 913a 823d f6f7 163d
000000a0: 2b9d d1bc f80b e8bd d3bb 11be 5bc6 883d
000000b0: a8b4 5f39 37fb a2bc b5f7 bebd 27b1 dd3c
000000c0: b5de 3e3c 69a4 bebd 44d3 65bd a3f3 2cbd
000000d0: 34c0 8abc 5115 533d b2fd 293d fc71 f7bc
000000e0: 7443 a1bc 5c35 983c 3a55 f9bc ce87 4abd
000000f0: ae75 a5bc 86be 2c3d 2732 b3bc 09c0 07be
00000100: 63a5 09be 1707 983c dbc5 91bd 8836 0dbe
00000110: f312 25bc 182f 663d 27f4 a7bd 4e38 cabd
00000120: fd14 91bc e682 e93b d085 85bc 62de c43d
00000130: 75b0 0ebc 0c8b a9bd ca54 c7bb 421f 0a3d
00000140: 5623 e93c b514 8c3d 5f96 7cbd bc6e afbd
00000150: 19b4 49bd 0ea2 21bc 3975 383d 271b df3c
00000160: 46da f0bc e63f 3fbc 1417 4fbd 5a2f 56bb
00000170: 7d86 db3c 9ce2 9dbd b0cb fabc 6302 5dbc
00000180: 0c8c 883a 9694 a03c 1d98 ccbc 5f15 653d
00000190: f731 f83b 4ba3 74bd f199 92bc f10a 853d
000001a0: 4102 a03d d917 9d3d 7683 95bc 1703 d9bb
000001b0: e2b6 afbb 0311 f53c fda5 b43d 262f 703d
000001c0: 2faa c8bb 54c8 c1bc da3f 493d 4c96 e1bb
000001d0: 1c2d 4c3c 6128 50bd bcad 01bd a0e9 7d3d
000001e0: 28b6 303d 01ac 10bd 352f 113c db19 173d
000001f0: 85cc e539 e7bc 203c 7778 89bc 4fa5 113d
00000200: 92ef a13d 424d c33d b8cb 263d d844 b1bc
00000210: 1c15 96bd 250c 96bd 26c7 7dbc cf20 773c
00000220: ab29 ecbb 85ef b6bc b4c9 99bd 0952 94bd
00000230: 2035 383d be1e 143c 985b adbd e87a a3bd
00000240: d565 cd3d 59a3 04bd b97d e2bc 28b6 5bbd
00000250: 6ec2 9e3d 4f02 633c 5a37 d2bc 144f 873c
00000260: 5ba6 893d 7e41 103c 65ae a7bd 6768 943d
00000270: a0b2 11bc 46e6 3c3b ebc6 073d 6342 ae3b
00000280: f1cc 233e 2589 043e 571f 14bd aa65 cabc
00000290: 8a85 46be f428 aebc d752 863c 37eb d3bd
000002a0: 05d5 72bd 8abf 42bd 86fc 0fbe df36 073d
000002b0: 9328 9c3d ff64 80bd ce3e 47bc 2b97 a83c
000002c0: f0a6 a6bd a3e6 c2bd 96ab 71bd 28d0 adbb
000002d0: 1b5c b33d 3ab7 38bc 6e93 a4bd b44c 44be
000002e0: 871c 7ebd 9521 f4bc c90e 363b 48b1 cb3c
000002f0: d86d e8bd 6f20 d1bc 5f8f edbc a699 67bd
00000300: 5a3d f6bc 661f e9bd ec2a 6bbd 1e55 c2bd
00000310: ed44 63bd c04a 10bd 4fd2 02bd 25db 50bd
00000320: 289c 033e 9b29 563d bf87 96bc 0589 bf3c
00000330: 6e8e 9a3d a669 1c3d 2107 8e3d b3ed b43d
00000340: abb5 80bd 846c 073e 1b72 d43c f26f c53c
00000350: 8396 bf3d c6a0 bfbd 59a5 453d e208 243d
00000360: 8ae9 b63c 10d2 e73c 7e27 dcbd 6aca 98bc
00000370: b895 5e3d 4b04 b6bb 475d dfbd 1c31 263d
00000380: 01fe a13c df95 353c a346 943d 8963 14bd
00000390: 5a64 bc3d 85c3 29bd 82ce cabc 72cb 563d
000003a0: 6e6c a53c d6e6 0ebd e1c2 4fbb 0774 cfbc
000003b0: f6e9 343d c1ea 7fbd dc71 91bc 3adf 2e3d
000003c0: c583 0e3d 8ba6 3d3b 3418 333d 94e4 a4bb
000003d0: b2aa 88bd 26dd 143a 57dd 203d cfc9 b53d
000003e0: 5983 6f3d 978f 203d 7fb9 a3bc 7894 893b
000003f0: 1f61 8dbc 5058 683d fa8e 773d ace0 db3c
0.032059733 -0.01889847 -0.0034030203 0.008885579 0.07016778 0.040120676 0.0067461445 0.021505963
-0.01641673 0.039185397 0.035871785 0.018069908 -0.029335527 -0.13597761 -0.06798167 -0.03762003
0.028910069 -0.0745699 -0.096194 0.027986646 -0.06850814 -0.024161479 -0.078948356 -0.017328102
0.035779376 -0.04044006 -0.019889051 -0.0019384742 0.042376958 -0.1201041 -0.001468735 -0.0724649
-0.01285141 0.033901323 -0.113955595 0.033523314 -0.100659624 -0.038049143 0.06358827 0.036857568
-0.025587639 -0.11330408 -0.14231806 0.06678458 0.00021334237 -0.01989518 -0.0932459 0.027062012
0.011649777 -0.093087025 -0.05610968 -0.042224538 -0.016937353 0.051534 0.04150171 -0.03020572
-0.019685484 0.018580131 -0.030436147 -0.04944592 -0.020197716 0.042173885 -0.0218745 -0.1325685
-0.13441996 0.018558068 -0.07117816 -0.13790333 -0.010075319 0.056197256 -0.08200865 -0.098740205
-0.017710203 0.0071262 -0.016299158 0.09612729 -0.008709063 -0.08278474 -0.0060831057 0.033721216
0.028459232 0.06839887 -0.061666843 -0.08566043 -0.04924402 -0.009865297 0.045033667 0.027234627
-0.029400956 -0.011672949 -0.05055912 -0.0032682032 0.026797527 -0.07709238 -0.030614704 -0.013489339
0.0010417714 0.019602101 -0.024974877 0.055928584 0.0075743156 -0.05972604 -0.01789567 0.064962275
0.0781293 0.07670564 -0.018251162 -0.006622683 -0.0053623775 0.029915338 0.08820722 0.058638714
-0.006123803 -0.023655094 0.04913316 -0.006884372 0.012461927 -0.05081976 -0.031659827 0.06199038
0.043142468 -0.035320286 0.008861353 0.036889892 0.00043830663 0.009810663 -0.016781075 0.03555804
0.079070225 0.0953622 0.040721625 -0.021639273 -0.07328245 -0.07326535 -0.015489375 0.015083506
-0.0072071156 -0.022331009 -0.07509175 -0.072422095 0.04497254 0.009040533 -0.08464736 -0.07982427
0.100291885 -0.032382343 -0.02764784 -0.053640515 0.07751928 0.013855531 -0.02566116 0.0165172
0.06721183 0.008804677 -0.0818756 0.07246476 -0.008892685 0.0028823777 0.033148687 0.0053179725
0.15996148 0.12942941 -0.0361627 -0.02470668 -0.19386879 -0.021259762 0.016396923 -0.10347598
-0.059285183 -0.047545947 -0.14061174 0.033011314 0.076249264 -0.062692635 -0.01216097 0.020579895
-0.081373096 -0.09516647 -0.059001528 -0.005304355 0.08757802 -0.011274153 -0.080359325 -0.19169885
-0.062038925 -0.02980117 0.0027779809 0.024864808 -0.11349076 -0.02552816 -0.028999029 -0.056543015
-0.030058552 -0.11382942 -0.05741398 -0.09488891 -0.055485655 -0.035227537 -0.031938847 -0.050990243
0.12852538 0.05228577 -0.018375276 0.023380766 0.075466976 0.03818669 0.069349535 0.088344
-0.062846504 0.13224989 0.025933316 0.024101231 0.0935488 -0.09356837 0.04825339 0.040047534
0.022328157 0.028298408 -0.1074972 -0.018651206 0.054342 -0.005554711 -0.10906463 0.040574178
0.019774439 0.011083095 0.072400354 -0.036227737 0.09198828 -0.041446228 -0.024756674 0.052440114
0.020193305 -0.03488811 -0.003170185 -0.02532388 0.044168435 -0.06247974 -0.017754488 0.042693354
0.034793634 0.0028938379 0.043724254 -0.0050321314 -0.066731825 0.00056787056 0.039273586 0.088763826
0.058474872 0.039199438 -0.019985912 0.004198607 -0.017258225 0.056724846 0.060439087 0.02684053

conv2.bias f4 [64]
00000000: af96 313d d814 993d cc64 6fbd da42 da3c
00000010: be5e 10bd 4cf8 58bd d300 a7bd 4ba9 51bc
00000020: 89c5 c5bb 4f96 47bd 3ccd 2ebc 69c6 10bd
00000030: de87 78bd e90c 19bc 8d81 c6bd 987b 53bd
00000040: 92c5 bd3b b033 d53c ff9e ffbc fb8e 77bd
00000050: fe36 5cbd 2ec5 263c cf59 44bd 158a 1abd
00000060: 07aa 87bd 6408 01bd 9bb6 a2bd db2f 4cbd
00000070: 2713 073d 4a48 19bd 0580 09bd 261f a6bc
00000080: c81f 003c f765 44bd bb3a 9bbd 6947 013d
00000090: c45b 1f3c 7744 293d 0916 84bc ae2d 3a3d
000000a0: 9427 81bd c473 b9bc 7014 4d3d b8fb 85bd
000000b0: 8138 363d 820c 4dbd eac8 9abc dacc 3cbc
000000c0: 3aac 20bd c86e 39bb 5e34 92bc a716 5abb
000000d0: d3ac 903c fb81 49bc 4cae 60bd 51dc 88bc
000000e0: 36b5 303d d8b6 17bd ad5a 8abd 5a10 3fbd
000000f0: 402a 1ebc 7d15 a0bd 5f90 7d3c 3b3f 4dbd
0.043356594 0.07474679 -0.058445737 0.026643205 -0.035246603 -0.05297117 -0.08154454 -0.01279671
-0.006035511 -0.04872733 -0.010669049 -0.03534547 -0.060676448 -0.009341457 -0.096926786 -0.05163154
0.0057913745 0.026025623 -0.031203745 -0.06043909 -0.053763382 0.010178847 -0.04793721 -0.03772934
-0.06624227 -0.031502143 -0.079449855 -0.049850326 0.03297725 -0.037422456 -0.033569355 -0.020278525
0.007820077 -0.047948804 -0.07579561 0.031562243 0.0097264685 0.04132506 -0.016123788 0.04545372
-0.06306377 -0.02263821 0.05006832 -0.06542152 0.04448748 -0.050060757 -0.018894631 -0.01152345
-0.039226748 -0.002829479 -0.017847236 -0.0033277662 0.017660534 -0.012299056 -0.054853722 -0.016706618
0.043141566 -0.037039608 -0.06755576 -0.046646453 -0.009653628 -0.078165986 0.015476315 -0.05010913

fc1.weight f4 [100, 1024]
00000000: 6bd6 5cbd a76f f9bd 4091 88b8 90bb 853d
00000010: aa19 1ebc 2643 9cbd f4e7 b13b 353b 3d3d
00000020: 06db 0fbd 15e4 0cbd d239 94bd ecb7 fa3c
00000030: 334d 2a3b f8e6 a7bd 8a2b 53bd 2184 06bd
00000040: ce50 383d f2b7 a0bc 48b7 803e 177f bf3d
00000050: 14a3 f83b 5f92 4ebd e902 8e3d 7885 733c
00000060: d180 f83d eeeb 91bd 5617 963c 22d7 9f3d
00000070: 7044 0fbc abab 94bd 7aae e5bb e86f a73d
00000080: e5f3 3a3d 85f0 563d 5047 513d f9af 593d
00000090: bdff 343d 27e0 acbc f5f1 26bc 8341 9dbd
000000a0: 909d bebd 3f98 393d 3028 713d 11d9 07be
000000b0: cb22 4d3d a6db ac3d 10db 173e 3e4c 963d
000000c0: a0cf 17bd a88c b93d cd20 ddba 6b27 0dbd
000000d0: f526 6ebd 887e 563d 8f10 5a3d c17c bf3c
000000e0: 9cb5 ee3d 0c3c 833d bc40 4f3d 7e85 f9bc
000000f0: f116 a13e bb22 823d b52c e83c 19b8 2ebd
00000100: 7107 e03d a9d4 8d3d ff91 36bd 374c 873e
00000110: adb3 9dbc 0e7f 8e3d d564 843d a3ce fbbb
00000120: ed32 0abe 0c8a 35bd 24d6 463d 46ac 8cbb
00000130: 0af2 0dbc 8841 8cbb c6ed 653a 3608 963c
00000140: ae88 1cbe 2811 9ebd e6bf 96bd a114 22be
00000150: fa42 b2bd 4218 9f3d fc5a 1a3e a7ec 17bd
00000160: 7ce1 a2bb c901 8a3d 4b06 16bd 788a 753d
00000170: 73c9 483c 3d4e 8d3d f66e bfbc ec81 1438
00000180: bbbc d33b 10a0 f0bc 5e26 69bc 4cfb b8bc
00000190: e823 1c3c 28ce 033c 0cf2 9a3c 63a7 ddbd
000001a0: a422 a53d 4275 43bd 69a5 82bb 42f2 81bd
000001b0: 0019 733d 782f 913c 1731 a8bd 3c46 d13c
000001c0: b3e4 873d f54f 7cbd e5f6 d23c aaf0 20ba
000001d0: 8859 853d 8626 923c 9ce3 acbc e350 943d
000001e0: 356f 8e3c 3097 ebbc 4c47 623d db32 0ebe
000001f0: dcd7 2b3e 3325 613b cdbe 3abd 713d e0bd
00000200: 0288 6fbc f732 a13c d2a6 a23c 1d39 ac3b
00000210: c10b f93c 1c36 3a3b a369 97bc 67b0 8fbc
00000220: c152 d3bb aaab ab3c 618d 093d f02f 82bc
00000230: 7e47 0a3d 5ad7 54bc 2fbd f7bc c79a 41bc
00000240: 1bc2 613c e0d5 04be 340b 17be bb93 97be
00000250: c6e9 07be ca92 d43d 7ca8 413d ed5e ecbd
00000260: 1810 1ebd ec5e 5c3d d420 573d e354 c73c
00000270: be09 163d da08 4cbd 1a0e 983c dc22 2d3d
00000280: bfe8 6a3c d8b9 93bc a8a0 283b 0cee 79bc
00000290: 6278 7d3d bee6 34bd 66d4 91bc c629 11bd
000002a0: 66ad 5cbd f070 b3bc 755e 693c ba29 d2bc
000002b0: 208c 22bd e262 edbd 0ef6 d63c c558 79bd
000002c0: 7b5c 283d f168 08bc f8d9 613b e787 493c
000002d0: 935d 253c 27fe 9dbb 1a5a e43c f066 86bc
000002e0: 433f 76bc b94d a93c 23b1 a4bc 02bb 15bd
000002f0: 9e7a 8dbd 98a4 cfbd 502c b6bc c230 85bd
00000300: e17c ef3c 9aa9 a3bc b644 593c c845 bcbc
00000310: 0629 c0ba 4012 31bd 9ae2 ce3d 91a1 30bd
00000320: 7be0 3d3d d50c 273d 0cf9 56bd 4db1 a13d
00000330: daba ae3d df90 f23d 3e21 d7bd 86ec f23d
00000340: a9ab 3bbd 5f6a 8f3d 93b4 ecbd 68e7 51bb
00000350: 04a9 f83c c8fd 81bd 79eb a7bd a1fe 013d
00000360: 44fd c03c 5f56 70bd 2d63 5f3d 30ef 833d
00000370: 5066 63bc 5317 1abc 07c6 c43c b0e6 28bd
00000380: 544d 5fbc ad28 87bd 3d32 cebc 5773 36bd
00000390: 922c 47bd 06e8 063c 729c 3b3d b9dd 0d3d
000003a0: 91a1 4c3c 5980 9ebc 17ee 8b38 81e1 ae3d
000003b0: 3990 05bd 5e8a 66bd 248b dc3b b11a cc3d
000003c0: 3b87 9e3d 593b 0f3d 2dcc 87bd 6ce2 85bd
000003d0: 4d42 843c 4877 e13c 1c88 9f3d 1b5f 4dbc
000003e0: c3f9 9abd 315e c23d 82b4 353e 5a94 ec3d
000003f0: 4800 9ebd d0f8 a8bd 603c 363d f5ae 703e
-0.053915422 -0.12179499 -6.51204e-05 0.06529915 -0.0096496735 -0.07629995 0.0054292623 0.046199042
-0.035120986 -0.034397203 -0.07237591 0.030605279 0.0025985956 -0.08198351 -0.051555194 -0.03284085
0.044998936 -0.019618962 0.25139832 0.09350412 0.0075878 -0.05043256 0.06934149 0.014863364
0.12133945 -0.07125078 0.018321674 0.07804705 -0.008744344 -0.072593056 -0.0070093246 0.08175641
0.045642752 0.05247547 0.0510934 0.053146336 0.044189204 -0.021102978 -0.010189523 -0.07678511
-0.093073964 0.04531121 0.058876216 -0.13266398 0.05008201 0.08440332 0.1482966 0.07338761
-0.03706324 0.09060031 -0.0016870737 -0.03446142 -0.05814262 0.052366763 0.053238448 0.023374917
0.11655733 0.064079374 0.050598845 -0.030459162 0.31462815 0.063542806 0.02834163 -0.042656038
0.10938919 0.06925327 -0.044572826 0.26425335 -0.019250715 0.069578275 0.06464545 -0.007684545
-0.13495989 -0.044321105 0.048544064 -0.0042929975 -0.008663664 -0.004280273 0.0008771088 0.018314462
-0.15286514 -0.07718116 -0.073608205 -0.15828182 -0.08704181 0.07768299 0.1507377 -0.037090924
-0.0049707275 0.06738622 -0.036627095 0.059946507 0.0122550605 0.068996884 -0.02336834 3.540695e-05
0.0064617074 -0.029373199 -0.014230339 -0.022580765 0.009530045 0.008044757 0.018914245 -0.10822942
0.08063248 -0.047719248 -0.0039870036 -0.06345035 0.059350014 0.01772283 -0.08212488 0.025546186
0.06635418 -0.06159969 0.025752494 -0.00061393774 0.06511217 0.017840635 -0.021104626 0.072419904
0.017387012 -0.028758615 0.055243775 -0.13886587 0.16781563 0.0034354448 -0.045592118 -0.10949219
-0.014619829 0.019677622 0.019854937 0.005255832 0.030401113 0.00284136 -0.018482989 -0.01754017
-0.006449074 0.02095588 0.033582095 -0.015891999 0.033759587 -0.012990797 -0.030241577 -0.011816687
0.0137791885 -0.12972212 -0.14750367 -0.29604897 -0.13272771 0.1037956 0.04727982 -0.11541543
-0.038589567 0.053801462 0.05252154 0.02433247 0.036630385 -0.04981313 0.018561412 0.042269573
0.014337718 -0.018032953 0.0025730524 -0.015254509 0.061882384 -0.044165365 -0.017801475 -0.03544023
-0.053876303 -0.021904439 0.014243712 -0.025654662 -0.039684415 -0.11591126 0.026240375 -0.060875673
0.04110382 -0.008325801 0.0034462195 0.012300468 0.010093111 -0.004821557 0.027874995 -0.016406506
-0.015029731 0.020666944 -0.020103997 -0.036555298 -0.06908153 -0.10138816 -0.022237927 -0.065034404
0.029234352 -0.019978333 0.013261011 -0.022982493 -0.0014660663 -0.043230295 0.101018146 -0.04312283
0.04635666 0.040783722 -0.052483603 0.078951456 0.08531733 0.11844038 -0.10504387 0.118615195
-0.045818005 0.070027106 -0.11557879 -0.0032028798 0.03035403 -0.06347233 -0.0819921 0.031736974
0.023558266 -0.05867612 0.05453794 0.06442106 -0.013879374 -0.009404975 0.024020208 -0.041235626
-0.013629276 -0.06599555 -0.02517044 -0.04454359 -0.04862649 0.00823403 0.045803495 0.03463528
0.012489692 -0.01934831 6.672384e-05 0.08539105 -0.032608245 -0.0562843 0.006730454 0.099660285
0.07740637 0.034968708 -0.0663074 -0.06537327 0.016144896 0.027522698 0.07789633 -0.012534882
-0.075671695 0.09490622 0.1774464 0.11551733 -0.077148974 -0.08250582 0.04449117 0.23504241

fc1.bias f4 [100]
00000000: a491 213c 83f9 2cbd 5e10 be3c e28b 003b
00000010: eada 973c 9d75 2ebc 9e5e 1f3d 9a46 1ebd
00000020: 9a43 4d3c 5fdb 6c3c a9db 493c 4631 3cb9
00000030: d149 933c fbae b9bc c91f 913b 0d60 fdbc
00000040: a638 80bc 7333 cf3c dd12 6e3c 0b98 dfbc
00000050: 0d42 83bc 8880 0fbd f637 b83c 1cce bb3b
00000060: f23b 983c c49e 3abb 5b37 88bc 86bf 4c3c
00000070: c5ee febc 5716 32bc e3f7 9fbb 93b7 e0ba
00000080: ee22 f13b 771c 82ba e07a 893b b1d5 093d
00000090: 35cc 8bbc efa2 2a3c a6c0 fabb c589 ccbb
000000a0: 052b 9a3c 3d4d 66bc e11c bfbc e74c 40bc
000000b0: f4a7 bc3c 6975 83bc 346b 92bc a0be c5bc
000000c0: f60a e6bb 4f03 abbc 5d72 acbc d600 703c
000000d0: 646d c33c fe29 06bd 88e7 9b3c 0fbf cbbc
000000e0: 63a7 413c d034 173b 02cd 7c3c cf68 9abb
000000f0: 47e7 663c d9bd 81bc d418 7bbc ec05 25bd
00000100: b3eb f8bc ca3b 05bd 39b6 743c cbc4 e4bb
00000110: d5b2 e13c 20ad 65bc 6570 183c aa5c f0bc
00000120: 69d2 8c39 4cb9 6abc 6cb4 efbc e4a4 1cbc
00000130: 602a 11bd 0156 f2bc 30b4 cc3c bc52 3a3c
00000140: 4a37 7f3a a9de 9e3c ed7a 1b3c b8b7 213d
00000150: 4fc7 a93c 2647 11bd 9561 ef3c e05a 08bc
00000160: 3d35 25bc c908 cbbb 7fa2 113d f5d2 733c
00000170: dd91 9d3c 65d0 dcbc a997 333c 6397 ea3c
00000180: dd8d 6f3c ec08 17bd 1769 3b3d 5fc3 8e3d
0.009861384 -0.04223014 0.023201164 0.0019614627 0.018537004 -0.010648158 0.038908593 -0.03864155
0.0125283245 0.014456599 0.0123204375 -0.00017947433 0.017979534 -0.022666445 0.004428838 -0.03092959
-0.015652012 0.025293088 0.014530865 -0.02729418 -0.016022706 -0.035034686 0.022487622 0.0057313573
0.018583272 -0.002847598 -0.016627958 0.012496835 -0.031119714 -0.010869584 -0.0048818453 -0.0017144553
0.0073589003 -0.0009926696 0.004195556 0.033651058 -0.017065147 0.010414823 -0.00765236 -0.0062420093
0.018819341 -0.014056501 -0.0233292 -0.011737085 0.023029305 -0.016047196 -0.017873384 -0.024138749
-0.0070203496 -0.020875601 -0.021050626 0.014648637 0.023855872 -0.03275489 0.019031301 -0.024871377
0.011819693 0.002307225 0.015429737 -0.004712201 0.014093227 -0.015837597 -0.015325744 -0.04028885
-0.030385828 -0.032527722 0.014936023 -0.0069814674 0.027551094 -0.014018327 0.009304141 -0.02934106
0.0002685965 -0.014326405 -0.029260837 -0.009560797 -0.035440803 -0.029582025 0.024988264 0.0113722645
0.0009735717 0.019393282 0.009489757 0.03948185 0.02072492 -0.035468243 0.029221335 -0.008322448
-0.010083494 -0.0061961156 0.03555536 0.014881839 0.019234592 -0.026954839 0.010961452 0.02863664
0.014621225 -0.036873743 0.04575452 0.06970858

fc2.weight f4 [10, 100]
00000000: 4603 033e 1fa4 ec3c 8d02 d33b 5f50 e73c
00000010: 6c88 d53d 878f 0fbe 30ef 903c fd14 bb3c
00000020: 33b8 f5bb fcfb e73d 9553 a53d cd61 6a3e
00000030: 11c7 c83d 7a33 bd3d 0bf6 993d 17b6 d03d
00000040: fb0c 16bd 894e 16be 6b23 53bc cf46 873d
00000050: 95b2 29be 6fa4 b3bd 75af 12ba 08d3 4a3d
00000060: de21 853c 0137 6abe d9d0 573e 76db dfbc
00000070: 0c7e 98bd 45b1 b1bd 0213 26be bffc b3be
00000080: 98c0 cf3c f8dd 7cbd be9a 953d a701 993d
00000090: 9bf3 4e3d 4754 fc3c 4214 1f3d d82b 2a3d
000000a0: 8d97 24bd 1740 013d 9ca4 ac3d 54a6 8dbe
000000b0: bc32 6f3e 1b80 a3bd 0f34 c2bd 10cf 44bd
000000c0: 0f75 82be 494b 383e 58b0 893c d060 6dbe
000000d0: 3554 903d 8e48 dfbb bcc0 393e f8bd b2bc
000000e0: 4b87 cabc 427d fdbc 1970 8c3a a4a8 053e
000000f0: 0d55 9ebe 25fd 37be ac6d 413e f429 75be
00000100: bb5b 2dbd dd63 b13d 0cad a03b 615b 823e
00000110: 1cf5 0c3e d845 9ebd 7339 9fbe 3474 01bf
00000120: e636 50be d35c 67be 6a66 3a3d 657d c93d
00000130: 9d23 11be f6b3 8c3e 81e7 87be 155e ba3d
00000140: 76db 80be 6aab a13d 7d65 bfbd 2cb9 0b3e
00000150: e39f 4e3e 6602 36bd 60f6 d2bd db2d 3ebd
00000160: b307 c3be c1ba 383d 62a8 33be efc3 363e
00000170: 832c d2bd 6133 c43c 98ef 36be 9331 24be
00000180: 7d5a 3abc 8a2d a03d 3676 8d3e 8813 883d
00000190: 88d5 66be 5278 19bd 61b3 bbbc 9c26 9cbd
000001a0: 32a5 54be f04a 83bd 7b37 ff3d 9236 953d
000001b0: 29cd 62bd d053 303e 2e0e a5bb 1909 023d
000001c0: 4935 a23d 8f2b bcbd b1c8 b8be 20d9 783d
000001d0: 2504 c0be e908 c23d b1dd 83bd 7a93 b03c
000001e0: 805f ebbd a24b babd afde a2bd b4ac 88be
000001f0: 1560 0a3d 5343 84be ed02 36be 683e 913b
00000200: be56 cebc 7220 a03d e4dc 71be e9e3 0d3e
00000210: 268f ce3c 0a6b b9bd c69c 79bc 0eb6 633e
00000220: ada4 98be 86e6 96bc 8699 183d 887f 453c
00000230: d3e0 85bd de97 6c3b 3d41 653d c258 2e3e
00000240: f052 5abe 5ca8 493d 1684 adbd e967 32bd
00000250: 8619 7ebe bef1 a13d fb7d b53c 8212 003e
00000260: ce0a 473c 3bd6 73bd 0d95 e6bd 7f91 973a
00000270: e90e 02bd bc8e 81bd d1d2 863d 1431 b4be
00000280: 1900 ad3d afb3 adbe 7ca8 3e3e 5fbd 9fbe
00000290: 58fb 8a3d ca22 63bd 8bfe 943d a158 5a3e
000002a0: 01b5 84be c057 8e3c cd5d ab3d e041 723d
000002b0: 9cdd 86be 024f a5be 69eb 9fbd b2f8 80bd
000002c0: 4f7e b9bc 51b2 afbd 702e 5d3e 74b4 5fbd
000002d0: 10de f2bd 4d02 803d ba0f a03d 48ad ca3d
000002e0: 8b34 87be 091b 193d 7c1d 323e 41c2 9abd
000002f0: 5ca3 023e 76af e4bc a660 5a3e 5008 a3be
00000300: 10e8 6e3d f6bc 663d d1fb f73d 3d0f 583e
00000310: cb5b 913c ca0b 9b3d aed4 763e c9e3 2f3e
00000320: 4302 d13d 498e 88bd ad1a 25ba 3f85 bf3d
00000330: 0c68 313e 6795 463e 0f60 b5be 1cdb 0c3c
00000340: 7f87 24bd 3334 183e 965c bcbd 12e9 283e
00000350: 302c 073e db29 96bd 0de6 12be bcac 313b
00000360: d164 bbbd 6c6d 04bc 68e1 f0bc 779d 85bd
00000370: b96e a7be 1dec 8bba b316 963d 9059 36be
00000380: cbb5 b5bd e87d 243e 47dc aabc b6a2 6ebb
00000390: 6574 573d b663 483d 7fdc b0bd d1eb dc3d
000003a0: 08e8 aabd c97b 313b 0eb7 b63d a61a ccbd
000003b0: cf0c 643e 4e2a a0bd 0e52 dfbc 825c 86bc
000003c0: 6275 b5bd 5cfe 26bd 9cd8 8ebd 180b 473e
000003d0: eca4 3d3e 786d 9abd ef63 ef3a 68e8 87bd
000003e0: 627e c3be f6c0 4b3e 6e64 db3b e4a7 55be
000003f0: 6b60 4cbe cadd e6bc 1a87 56be a687 053e
0.12794217 0.028886853 0.006439513 0.028236566 0.10426411 -0.14019595 0.017692178 0.022837156
-0.007498765 0.11327359 0.08072583 0.2288887 0.09803594 0.09238334 0.07517632 0.10190981
-0.036633473 -0.14678396 -0.012886862 0.066053025 -0.1657203 -0.087715976 -0.0005595603 0.04951766
0.0162515 -0.22872545 0.21075763 -0.027326327 -0.074459165 -0.086763896 -0.16218188 -0.35153767
0.02536039 -0.061735123 0.07304905 0.07471018 0.05052529 0.030801905 0.03883768 0.04154572
-0.040183593 0.03155526 0.08429834 -0.2766596 0.23359197 -0.079834186 -0.09482586 -0.048049033
-0.25479934 0.17997469 0.01680772 -0.23181462 0.07047311 -0.006814069 0.18139929 -0.0218191
-0.024722716 -0.030943517 0.001071456 0.13052613 -0.30924264 -0.1796766 0.18889493 -0.23941785
-0.04232381 0.086616255 0.0049034413 0.25460342 0.13765377 -0.077281654 -0.31098518 -0.50567937
-0.20333442 -0.22594003 0.045507826 0.0983837 -0.14173742 0.2748105 -0.2654381 0.09099976
-0.25167435 0.07894023 -0.09345529 0.13644856 0.2017818 -0.04443588 -0.103008986 -0.04643045
-0.38091812 0.045099977 -0.17544702 0.1784818 -0.10262396 0.02395028 -0.17864835 -0.16034536
-0.011374113 0.07821186 0.2762925 0.0664435 -0.22542393 -0.037468262 -0.022912683 -0.07624552
-0.20766142 -0.064107776 0.12461754 0.07285799 -0.055371437 0.17219472 -0.0050370907 0.031746957
0.079203196 -0.09187996 -0.36090615 0.06075394 -0.37503162 0.09474356 -0.06438769 0.021554697
-0.114928246 -0.09096457 -0.0795263 -0.26694262 0.033783037 -0.25832614 -0.17774554 0.0044324882
-0.025187846 0.078186885 -0.2361942 0.13856472 0.025214743 -0.09053619 -0.015235132 0.22237417
-0.29813138 -0.018420469 0.037255786 0.012054332 -0.065370224 0.0036101262 0.05597042 0.17026046
-0.213207 0.049232826 -0.08472459 -0.043556128 -0.24814424 0.07907437 0.022154799 0.1250706
0.012148572 -0.059530478 -0.11258898 0.0011563747 -0.0317525 -0.063260525 0.06583179 -0.35193694
0.08447284 -0.3392615 0.18618959 -0.31199166 0.06786221 -0.0554531 0.07275113 0.21322872
-0.25919345 0.017375827 0.083675005 0.059144855 -0.2634095 -0.3228684 -0.07808573 -0.06297435
-0.022643236 -0.08578933 0.21599746 -0.054615453 -0.11858761 0.06250439 0.078154996 0.09896332
-0.26407275 0.0373793 0.1739406 -0.07556582 0.12757629 -0.027915698 0.21325931 -0.3184228
0.05832678 0.05633255 0.12108577 0.21099563 0.017743966 0.07570608 0.24104568 0.17176737
0.102055095 -0.06667764 -0.00062982255 0.093515866 0.17324847 0.1939293 -0.3542485 0.008597162
-0.04016828 0.14863662 -0.09197347 0.1649516 0.1320045 -0.07332202 -0.1434557 0.0027111014
-0.091500886 -0.008082729 -0.029404357 -0.06524175 -0.32701662 -0.0010675226 0.07328548 -0.17807603
-0.08872565 0.16063654 -0.02085699 -0.0036412901 0.052601237 0.048923217 -0.08635806 0.10787166
-0.08345038 0.0027081838 0.08921634 -0.0996602 0.22270511 -0.07820569 -0.027260806 -0.016401533
-0.088602796 -0.04076992 -0.06974909 0.19437826 0.18519944 -0.07540411 0.0018264035 -0.06636125
-0.3818236 0.19897828 0.0066953218 -0.20864826 -0.19958656 -0.02818193 -0.20949975 0.13040027

fc2.bias f4 [10]
00000000: a915 d3bc ca5c afbc 62a8 443d 8dc1 3bbd
00000010: 0d55 3e3e 6577 1fbe 5209 29bd 747d 87bd
00000020: e036 01be ba71 f53c
-0.025767164 -0.02140655 0.048012145 -0.04583888 0.18587132 -0.15572889 -0.041268654 -0.06615725
-0.1261859 0.029961456
